models/model.tflite (tflite, 356160 bytes, 5 tensors)

dense_1/bias f4 [80]
-0.12366947 -0.07324165 -0.07917255 -0.080018215 -0.063788205 -0.037302878 -0.2844111 -0.14920129
-0.23956434 -0.06669507 -0.067813784 -0.10492253 -0.020430056 -0.072048694 -0.07206069 -0.07651275
-0.13882628 -0.06729055 -0.07205952 -0.18659854 -0.05757482 -0.015575716 -0.13159634 -0.22202273
-0.21689336 -0.07025303 -0.044642434 -0.07042046 -0.017480006 -0.06613824 -0.24071437 -0.34801656
-0.21071331 -0.25523248 -0.16940221 -0.06426186 -0.12472797 -0.30856606 -0.18346806 -0.10090086
-0.008214303 -0.066701375 -0.1168628 -0.1252294 -0.061830234 -0.15689906 -0.058086257 -0.2709373
-0.28553548 -0.14995001 -0.05503159 -0.059278887 -0.11994767 -0.055406936 -0.08119504 -0.07365505
-0.1331322 -0.2126585 -0.09076483 -0.027615808 -0.3508206 -0.26674813 -0.2405963 -0.091847904
-0.16528648 -0.06669728 -0.08890604 -0.037057586 -0.014480576 -0.26760104 -0.05765032 -0.03728008
-0.31163007 -0.34395453 -0.07041296 -0.023053335 -0.21031402 -0.12410474 -0.053292807 -0.19870564
00000000: 6b46 fdbd b8ff 95bd 3825 a2bd 97e0 a3bd
00000010: 64a3 82bd e7ca 18bd 559e 91be 39c8 18be
00000020: 5b50 75be 6d97 88bd f4e1 8abd a0e1 d6bd
00000030: ef5c a7bc 448e 93bd 8e94 93bd b7b2 9cbd
00000040: 7a28 0ebe a1cf 89bd f193 93bd b013 3fbe
00000050: 93d3 6bbd 4a31 7fbc 31c1 06be ed59 63be
00000060: 4b19 5ebe d2e0 8fbd fcda 36bd 9a38 90bd
00000070: 3b32 8fbc 7c73 87bd d47d 76be 3a2f b2be
00000080: 3bc5 57be d5ad 82be c677 2dbe b99b 83bd
00000090: 6171 ffbd 5ffc 9dbe 0ddf 3bbe 1ca5 cebd
000000a0: 4995 06bc bb9a 88bd c455 efbd 233c 00be
000000b0: b341 7dbd 26aa 20be dbeb 6dbd 4bb8 8abe
000000c0: b531 92be 7f8c 19be ce68 61bd 6bce 72bd
000000d0: 20a7 f5bd 62f2 62bd 9649 a6bd 75d8 96bd
000000e0: cf53 08be 26c3 59be e9e2 b9bd 8c3a e2bc
000000f0: c29e b3be 3693 88be e05e 76be c11a bcbd
00000100: dc40 29be 9598 88bd 5f14 b6bd b2c9 17bd
00000110: f03f 6dbc 0103 89be be22 6cbd ffb2 18bd
00000120: fa8d 9fbe cf1a b0be ac34 90bd 59da bcbc
00000130: 8f5c 57be a02a febd 8f49 5abd 7e79 4bbe

dense/bias f4 [80]
-0.07204736 -0.05343429 -0.072059 -0.048637453 -0.054322507 -0.06880426 -0.06344435 -0.07204285
-0.055301823 -0.010214117 -0.07206107 -0.07204453 -0.17411225 -0.07906076 -0.0050523267 -0.09478032
-0.21278988 -0.072052486 -0.07554864 -0.2650142 -0.07037438 -0.039353427 -0.05566761 -0.023804238
-0.06150504 -0.046657052 -0.004521887 -0.07205394 -0.07205608 -0.07408754 -0.12361272 -0.06088104
-0.06945274 -0.07206045 -0.040696513 -0.30070943 -0.20815174 -0.044855505 -0.07063023 -0.19388407
-0.22715701 -0.15955009 -0.03024539 -0.072059125 -0.07205639 -0.04150073 -0.06272964 -0.023664836
-0.07205217 -0.07263399 -0.07205884 -0.14907056 -0.072054945 -0.061502844 -0.1090489 -0.08803049
-0.07205895 -0.05487447 -0.061049692 -0.15242799 -0.035366997 -0.14195326 0.23337924 -0.06529255
-0.014927994 -0.06151078 -0.2008737 -0.07205168 -0.06851131 -0.27012995 -0.32257318 -0.006235449
-0.38100576 -0.016382946 -0.07205736 -0.07797359 -0.046223536 -0.07737032 -0.28627938 -0.06732887
00000000: 918d 93bd eadd 5abd ab93 93bd 1138 47bd
00000010: 4781 5ebd 3fe9 8cbd 1def 81bd 348b 93bd
00000020: 2a84 62bd 1d59 27bc c194 93bd 158c 93bd
00000030: 7b4a 32be 9cea a1bd fd8d a5bb 2f1c c2bd
00000040: 97e5 59be 4190 93bd 3fb9 9abd f1af 87be
00000050: 7120 90bd 0f31 21bd b803 64bd 1b01 c3bc
00000060: b5ec 7bbd 771b 3fbd 562c 94bb 0491 93bd
00000070: 2392 93bd 35bb 97bd aa28 fdbd 665e 79bd
00000080: 3d3d 8ebd 6e94 93bd 63b1 26bd 96f6 99be
00000090: bb25 55be 68ba 37bd 95a6 90bd 8c89 46be
000000a0: d99b 68be 1961 23be 2ec5 f7bc bc93 93bd
000000b0: 4d92 93bd abfc 29bd 6678 80bd c2dc c1bc
000000c0: 1790 93bd 21c1 94bd 9693 93bd f4a5 18be
000000d0: 8b91 93bd 68ea 7bbd 0855 dfbd 5449 b4bd
000000e0: a593 93bd 0dc4 60bd 3e0f 7abd 1516 1cbe
000000f0: fcdc 10bd 325c 11be f8fa 6e3e 1ab8 85bd
00000100: 8c94 74bc baf2 7bbd d6b1 4dbe d58f 93bd
00000110: a84f 8cbd 794e 8abe 5028 a5be bd52 ccbb
00000120: 3013 c3be 8735 86bc cf92 93bd 9eb0 9fbd
00000130: e454 3dbd 5574 9ebd 3693 92be b8e3 89bd

sequential/dense/MatMul f4 [80, 1024]
-3.077396e-34 3.420785e-34 -4.5400576e-34 4.1358116e-34 -2.5517595e-35 6.763868e-36 -4.4696465e-34 -6.143597e-35
4.1903664e-34 -3.8905093e-34 -8.7130626e-35 1.8376254e-34 -4.721041e-34 -2.76071e-34 -2.8066402e-34 -2.7400502e-34
-3.3784947e-34 -3.3936015e-34 -3.793776e-35 3.5983843e-34 -1.1311472e-34 -1.7588163e-34 3.2062527e-34 -1.8684113e-34
3.867494e-34 1.6053739e-34 3.4489934e-34 1.6809086e-34 -6.094377e-35 1.0238972e-34 -1.7698629e-35 1.3968661e-35
-2.3722546e-34 3.3591907e-34 -3.234549e-34 7.556562e-35 -3.2597547e-34 3.2886434e-34 3.9469656e-35 4.9591223e-34
-1.4913614e-34 1.160211e-34 2.5224346e-34 -1.9237079e-34 4.940874e-35 1.5989339e-34 -2.2242814e-34 1.2869744e-34
-5.2595552e-34 9.254847e-35 -9.802326e-36 -1.9512045e-34 2.8763084e-35 -9.983355e-35 -4.094419e-34 -1.416476e-34
2.089985e-34 -3.0443706e-34 2.8360167e-34 2.675843e-35 -2.3017897e-34 1.5640785e-34 1.5709013e-35 6.870475e-35
-2.8676832e-34 3.3972448e-34 -2.60707e-34 4.919102e-35 -2.328209e-34 -3.903777e-34 -2.912267e-34 -4.293586e-34
-3.4418931e-34 -3.7341943e-34 2.5416328e-34 4.648961e-34 1.8971387e-34 -2.767931e-34 3.359863e-34 -8.912877e-35
1.3485923e-34 1.7346911e-34 -2.3943934e-34 -1.5681102e-34 1.326016e-34 1.3204716e-35 -2.8206336e-34 -2.6104084e-34
1.1543326e-34 3.8372408e-34 2.649599e-34 2.5785052e-34 -3.1951957e-34 2.6657838e-34 -2.5182893e-34 -4.0138187e-34
1.5210077e-34 -4.935796e-34 2.8592635e-34 3.2629464e-34 1.7787193e-35 -3.0436777e-34 -2.9930309e-34 1.3689751e-34
-3.3789654e-35 -1.9045504e-34 1.0733734e-34 9.915312e-36 -6.457203e-35 3.0916048e-34 2.463732e-34 3.7052654e-34
-4.102581e-34 -1.1771117e-34 -4.415144e-34 -2.5429217e-34 1.3120122e-34 1.2830439e-34 3.461808e-36 -3.0174988e-34
2.1740488e-34 -4.1230726e-34 3.1818589e-34 -2.9107789e-35 -6.761618e-35 1.2616214e-34 -2.5401866e-34 -7.423505e-35
-2.2539992e-34 -5.347335e-35 -1.4050107e-34 -3.8899055e-34 3.5056676e-34 1.7312161e-34 3.2161998e-34 1.4957525e-34
2.042899e-34 4.0593108e-34 -4.8147973e-36 2.621542e-34 -5.3719506e-35 4.0664955e-34 4.1818666e-34 -2.660259e-34
-3.1936163e-34 -4.701765e-34 -9.5906334e-35 -1.901448e-34 2.1973231e-34 -3.0066758e-34 -1.3673827e-34 -3.3325458e-34
-3.0888626e-34 -1.4383434e-34 6.3879394e-35 4.907702e-34 -1.6718148e-34 -1.0342212e-34 -8.391115e-35 4.8171543e-34
1.0388041e-35 -1.2726122e-34 -1.8866271e-35 -3.3900412e-34 2.017983e-34 5.2118113e-34 -2.113691e-34 -4.254677e-34
-3.9564697e-34 1.5263473e-34 3.76485e-35 -5.3444806e-34 3.866792e-35 1.9072304e-35 2.7577088e-34 -1.2248349e-34
-3.2546886e-34 -9.624143e-35 -4.411481e-34 2.9001126e-34 5.049187e-34 -3.1285977e-34 -2.0594037e-34 -2.9802455e-34
2.1569947e-34 -2.6208129e-34 3.7106835e-34 -3.953932e-34 -3.7514111e-34 -3.080686e-35 1.446159e-34 -3.8360047e-34
-3.8685666e-34 -1.5743014e-34 2.4830732e-34 -5.1904027e-34 -3.2194586e-34 -7.853664e-35 -3.8334717e-34 3.5049671e-34
2.5777985e-34 -3.1934118e-35 -1.2308402e-34 -1.6332798e-34 -2.0048e-34 2.304141e-34 -2.8808136e-34 -2.0596068e-34
1.7466397e-34 3.8540548e-34 -1.9266444e-34 4.030182e-34 -4.007866e-34 6.6940845e-35 -1.8306003e-34 1.6162093e-34
1.267468e-34 -4.7289215e-34 5.020348e-35 2.1699982e-35 1.5273417e-34 -5.427461e-34 -4.130153e-34 -3.4565563e-34
2.2429704e-34 -3.010253e-34 1.5742899e-34 4.911001e-34 2.9074126e-34 1.9738878e-34 4.7387704e-34 -3.02603e-34
-1.7618029e-34 2.6461636e-34 3.6248735e-34 2.390178e-34 -3.7094687e-34 -1.4233316e-34 -3.5245692e-34 -4.7716502e-34
2.8285007e-34 -4.8857467e-34 3.0484322e-35 -4.866752e-34 4.0401406e-34 -3.7613549e-34 2.0700658e-34 3.6923598e-35
-6.245398e-35 2.6773606e-34 -3.823345e-34 5.937213e-35 -3.3476878e-34 -2.7316675e-35 -3.7586735e-34 -3.7351673e-34
00000000: 2e87 cc87 a459 e307 8ade 1688 986f 0908
00000010: c0ac 0786 00da 0f05 8c87 1488 2853 a386
00000020: b23f 0b08 cb48 0188 08a2 e786 2743 7407
00000030: 2de2 1c88 0c7b b787 8288 ba87 8a1b b687
00000040: 1c8a e087 238b e187 34b6 4986 5627 ef07
00000050: f25a 1687 6bc9 6987 9017 d507 be5a 7887
00000060: 0085 0008 0b64 5507 9539 e507 5b6e 5f07
00000070: 2e04 a286 6b19 0807 4034 bc85 508a 9405
00000080: d2a9 9d87 ab41 df07 00f9 d687 4ce3 c806
00000090: daa5 d887 5e91 da07 50db 5106 8ccb 2408
000000a0: 663c 4687 ef37 1a07 00a5 a707 63b4 7f87
000000b0: d959 8306 e788 5407 30d4 9387 7811 2b07
000000c0: 59c7 2e88 3a09 f606 f078 5085 06ae 8187
000000d0: 48ee 1806 99b3 0487 770f 0888 2e48 3c87
000000e0: 41e7 8a07 4855 ca87 537c bc07 b045 0e06
000000f0: ecfa 9887 d5e6 4f07 000c a705 08a6 b606
00000100: 1a97 be87 20c9 e107 ff44 ad87 acc5 8206
00000110: 6cbc 9a87 a9b9 0188 a88d c187 caad 0e88
00000120: c7c0 e487 062e f887 a4eb a807 fc7c 1a08
00000130: 492c 7c07 e8f5 b787 1b4d df07 e6f1 ec86
00000140: 3842 3307 7b94 6607 7e22 9f87 0670 5087
00000150: fc41 3007 a86a 8c05 9876 bb87 cc7d ad87
00000160: e76f 1907 4507 ff07 9718 b007 fe5e ab07
00000170: 705b d487 f62b b107 795e a787 cb61 0588
00000180: 362d 4a07 1c05 2488 d907 be07 28dc d807
00000190: 5825 bd05 7e49 ca87 c8eb c687 cff7 3507
000001a0: 18a8 3386 7e28 7d87 01ad 0e07 18e0 5205
000001b0: 72a9 ab86 ee78 cd07 3abe a307 d341 f607
000001c0: e654 0888 0977 1c87 e4b7 1288 9201 a987
000001d0: 7665 2e07 b98b 2a07 c03f 9304 158c c887
000001e0: 867d 9007 3903 0988 8678 d307 78c3 1a86
000001f0: 30c1 b386 c0b2 2707 09d3 a887 c259 c586
00000200: cfcd 9587 1428 8e86 09c2 3a87 a843 0188
00000210: d8fd e807 3b1e 6607 cec0 d507 d2d1 4607
00000220: 20c6 8707 cce4 0608 80cc cc84 3a3b ae07
00000230: 9acf 8e86 eb21 0708 63f7 0a08 f6cd b087
00000240: 9140 d487 313e 1c88 78f6 fe86 ecbe 7c87
00000250: 8409 9207 f0d3 c787 9fc1 3587 547c dd87
00000260: 464a cd87 4a30 3f87 10d2 a906 1c16 2308
00000270: e938 5e87 b978 0987 f812 df86 d113 2008
00000280: e0ed 5c05 c028 2987 e09e c885 904e e187
00000290: 341e 8607 3031 2d08 977a 8c87 ca62 0d88
000002a0: ec79 0388 e8e2 4a07 7c2c 4806 d099 3188
000002b0: 0c98 4d06 c0cf ca05 fc47 b707 f9ce 2287
000002c0: a84f d887 86da ff86 bb98 1288 dcbe c007
000002d0: bcc9 2708 55ee cf87 f0de 8887 4012 c687
000002e0: 5d5b 8f07 d22e ae87 029e f607 5564 0388
000002f0: f452 f987 20cc 2386 3e3a 4007 3df2 fe87
00000300: 208e 0088 b342 5187 4d07 a507 107b 2c88
00000310: 40f8 d587 44c9 d086 24c7 fe87 edf1 e807
00000320: f852 ab07 78ca 2986 529b 2387 a219 5987
00000330: e83d 8587 ed22 9907 8176 bf87 65e2 8887
00000340: 122b 6807 ac12 0008 280c 8087 ffec 0508
00000350: 272f 0588 94f5 b106 1a54 7387 c1d4 5607
00000360: b379 2807 3725 1d88 b876 8506 f8c0 e605
00000370: bf04 4b07 bb5b 3488 753f 0988 42ba e587
00000380: 2a12 9507 cd10 c887 4f42 5107 2d32 2308
00000390: 103b c107 f62f 8307 0079 1d08 3c1d c987
000003a0: 0c2f 6a87 24de af07 07ea f007 c5da 9e07
000003b0: 5789 f687 7731 3d87 703f ea87 b690 1e88
000003c0: 72fc bb07 565b 2288 1c15 2206 bfb9 2188
000003d0: b741 0608 23fc f987 5894 8907 cc51 4406
000003e0: fa07 a686 eef0 b107 d81a fe87 94d6 9d06
000003f0: f57d de87 883d 1186 84ce f987 943e f887

sequential/dense_1/MatMul f4 [80, 80]
-3.3447404e-34 -2.4297213e-34 -1.0165419e-34 1.6995106e-34 3.481676e-35 -1.6874302e-34 -3.863547e-34 3.0311137e-34
1.9608263e-34 1.1076058e-34 -4.691147e-34 5.2409076e-34 -1.8085968e-34 1.6236011e-34 -3.6614023e-35 1.2148786e-34
-3.307436e-34 2.8216658e-34 -3.607731e-34 -3.96211e-34 3.5909208e-34 -3.2192506e-34 -3.184686e-34 2.9562565e-34
-3.8050527e-34 -2.569305e-34 2.4259168e-34 4.282305e-34 2.51743e-34 9.1582627e-35 -2.772707e-34 6.35821e-35
-2.4128312e-34 -5.280228e-34 -2.576642e-34 -5.434593e-34 -1.9608102e-34 2.258241e-34 -5.249856e-34 -1.0948109e-34
-1.0198612e-34 -1.3949088e-34 -5.1226483e-34 -2.7688783e-34 -4.2687118e-34 3.5002753e-34 -2.5216034e-34 -3.904679e-34
6.4708944e-35 -2.3025317e-34 5.3759875e-34 1.675965e-34 -2.645262e-34 9.811124e-35 2.6015527e-34 -2.5987352e-34
-5.5140075e-35 1.3737641e-34 -6.738404e-35 2.8876026e-34 -1.947194e-34 4.9207645e-34 1.5179176e-35 1.9470898e-34
8.279615e-35 -2.1970198e-34 1.7292778e-34 9.0716664e-35 -1.2926849e-34 1.048513e-34 2.5870174e-34 -2.366205e-35
-3.915074e-34 -2.8081963e-34 1.92024e-35 -1.5298663e-34 4.101316e-35 -2.7875072e-34 7.4593244e-35 -3.0461673e-34
-2.2406001e-34 5.419095e-34 3.9797427e-34 3.9347951e-35 3.4455728e-34 3.8328683e-34 4.562518e-34 8.0015304e-35
5.7257687e-35 -2.9279057e-34 3.0577625e-34 2.6843302e-34 -1.6883116e-34 -1.9588622e-34 2.2723908e-34 -2.9260382e-34
2.7080304e-34 -3.5623985e-34 1.8400723e-34 -5.6178344e-35 -3.8661743e-34 3.444463e-34 0.00013623098 -1.2389389e-34
-4.6792105e-34 5.2200967e-34 -3.7383875e-34 -1.5320096e-34 -1.9533904e-34 3.099942e-34 -2.387204e-35 2.7963909e-34
-3.3601986e-34 4.4590826e-34 1.7977852e-34 -2.7148662e-34 -3.0649096e-34 1.3682683e-34 -6.195737e-35 -3.8004508e-34
-1.8627637e-05 -1.0722089e-34 -3.1124813e-34 -2.089926e-34 -3.6663526e-34 -4.50148e-34 -2.8813497e-34 -3.7079592e-34
-1.8064157e-36 8.293479e-08 -1.2758958e-34 1.8545278e-34 -2.660332e-35 1.8853488e-34 -1.987806e-34 4.3585e-34
1.8322954e-34 4.8146155e-34 1.4001779e-34 -3.0032604e-34 -4.6908176e-34 -2.7734935e-34 3.5727773e-34 -3.896806e-34
-1.3072965e-07 3.8641034e-34 3.1998058e-34 -5.8080074e-35 -2.7365343e-34 2.3925516e-34 -1.2025821e-34 1.1137143e-34
4.481374e-34 1.8466557e-34 4.7377152e-35 -2.304694e-34 -4.868798e-34 -4.9276053e-34 1.5297773e-35 6.8801776e-35
-8.8692105e-35 -2.5304867e-34 3.4659235e-34 1.260018e-34 3.7329456e-35 3.6182083e-35 -2.3071556e-34 3.90115e-34
-2.3193449e-35 -1.0544777e-34 3.2174008e-34 -3.7047961e-34 -6.8090935e-35 -3.3955954e-34 -6.0173056e-35 8.5866476e-35
4.538918e-34 3.7097144e-34 -1.168993e-34 1.2955805e-34 -1.3975129e-34 -2.4530216e-34 3.5529317e-34 2.384959e-34
5.3539213e-34 -1.108673e-34 -2.3781328e-35 -1.0145443e-34 -1.3197151e-34 1.3769598e-34 1.4033515e-34 -1.5700719e-34
8.982534e-35 -3.4689089e-34 -1.8661023e-34 1.4069576e-34 2.2114093e-34 6.466957e-35 1.568643e-34 -2.4329716e-34
-4.6408085e-34 -3.1505788e-34 -2.6810785e-34 -4.3971794e-35 -3.1305426e-34 1.0775454e-34 -1.045132e-34 -8.0904816e-35
3.8753487e-34 1.6870438e-34 -4.1831307e-34 -4.1644046e-34 1.0978019e-34 -5.6814764e-35 0.002397744 -4.6621373e-34
-2.970514e-34 1.9561346e-34 -1.8142206e-34 3.0952796e-34 -2.7840867e-34 3.3484636e-34 2.1132218e-34 3.0919542e-34
-3.521715e-34 -3.10631e-34 -1.9062227e-34 -2.3163093e-34 -1.05980745e-35 2.8206722e-35 9.812806e-35 -1.4048199e-34
-7.093158e-35 6.496209e-35 -1.0530226e-34 -1.0801218e-34 2.004103e-34 -6.5495124e-36 -3.8152625e-34 6.610902e-35
3.0649665e-34 4.772893e-34 -3.7596828e-34 -4.583053e-34 1.6516423e-34 2.7997888e-36 -3.156004e-34 4.565665e-34
2.4503683e-34 3.0628789e-34 -4.121335e-34 -2.5782366e-34 -3.0596224e-34 -1.1723678e-34 -1.8743122e-34 7.725815e-35
00000000: cf4b de87 917b a187 211f 0787 59e7 6107
00000010: 1e1e 3906 464c 6087 6c63 0088 ba73 c907
00000020: bb51 8207 df39 1307 dde3 1b88 b628 2e08
00000030: 5c67 7087 48d0 5707 6dac 4286 2d7c 2107
00000040: 1cd1 db87 2888 bb07 5dc6 ef87 e7a9 0388
00000050: 5aa8 ee07 b6f4 d587 a0a8 d387 197a c407
00000060: 9ee3 fc87 76c2 aa87 d63a a107 d24d 0e08
00000070: da4f a707 e877 f306 2a47 b887 bc07 a906
00000080: 325c a087 3677 2f88 4b3f ab87 6798 3488
00000090: 7551 8287 fb15 9607 d674 2e88 7c86 1187
000000a0: 1490 0787 496a 3987 ac3a 2a88 0606 b887
000000b0: 2fda 0d88 19a2 e807 dc96 a787 56c1 0188
000000c0: a006 ac06 8c07 9987 d8a5 3208 22c6 5e07
000000d0: cdce af87 8669 0207 20e7 ac07 30b7 ac87
000000e0: 6496 9286 c59a 3607 3423 b386 03ea bf07
000000f0: ca69 8187 3c85 2308 a669 a105 0468 8107
00000100: 241c dc06 5b04 9287 46dc 6507 902a f106
00000110: cad3 2b87 0c5f 0b07 d2ef ab07 3a9e fb85
00000120: c419 0288 fca2 ba87 e831 cc05 a75a 4b87
00000130: 3810 5a06 fa42 b987 884d c606 da73 ca87
00000140: d6e9 9487 9014 3408 e83f 0408 a835 5106
00000150: 62ff e407 e0bc fe07 9c9d 1708 98b7 d406
00000160: 9037 9806 bc97 c287 2239 cb07 8367 b207
00000170: 446a 6087 5030 8287 ba06 9707 f677 c287
00000180: c0fa b307 12c3 ec87 6a96 7407 0059 9586
00000190: c679 0088 80ec e407 3ad9 0e39 e8ae 2487
000001a0: 527e 1b88 ac77 2d08 5e75 f887 96a3 4b87
000001b0: 37d3 8187 c806 ce07 e0d9 fd85 20da b907
000001c0: d152 df87 ae2d 1408 76f7 6e07 0e6f b487
000001d0: bcb2 cb87 c2df 3507 00b6 a486 5295 fc87
000001e0: 8c42 9cb7 6185 0e87 20dc ce87 40e6 8a87
000001f0: c2ab f387 5b96 1588 a07f bf87 a86f f687
00000200: 40ac 1984 e219 b233 7c98 2987 5082 7607
00000210: 9072 0d86 189b 7a07 c41c 8487 04d6 1008
00000220: c88d 7307 38fe 1f08 961d 3a07 d499 c787
00000230: 10e1 1b88 8c54 b887 a873 ed07 5c7e 0188
00000240: b15e 0cb4 2868 0008 e0a9 d407 4067 9a86
00000250: b8df b587 2803 9f07 c0d9 1f87 bc09 1407
00000260: 50eb 1408 7076 7507 70e6 7b06 562c 9987
00000270: 27cb 2188 6ebf 2388 80ac a205 10e8 b606
00000280: b8c8 eb86 002e a887 a259 e607 317c 2707
00000290: 397a 4606 8060 4006 3856 9987 50a3 0108
000002a0: 93a2 f685 042a 0c87 3dd5 d507 d739 f687
000002b0: 4a04 b586 10ad e187 a9f7 9f86 b245 e406
000002c0: d8d4 1608 858d f607 c562 1b87 5236 2c07
000002d0: e6c2 3987 0008 a387 0022 ec07 fa81 9e07
000002e0: 20ea 3108 305e 1387 efe2 fc85 27db 0687
000002f0: 946b 2f87 8407 3707 9489 3a07 c7b2 5087
00000300: f5cb ee06 6d8c e687 2c0c 7887 4904 3b07
00000310: 2ef9 9207 d4eb ab06 2882 5007 deb2 a187
00000320: a237 1a88 5264 d187 3030 b287 4ecb 6986
00000330: 6c0f d087 f83a 0f07 00ec 0a87 f714 d786
00000340: d2c7 0008 203f 6007 2402 0b88 d662 0a88
00000350: 43ec 1107 200a 9786 7823 1d3b 14ed 1a88
00000360: ad6c c587 e801 8207 ba26 7187 74b7 cd07
00000370: c808 b987 288b de07 9b72 8c07 e07e cd07
00000380: e00e ea87 2073 ce87 6661 7d87 f6f1 9987
00000390: 6865 6185 00f9 1506 406f 0207 8bbb 3a87
000003a0: 8891 bc86 e8b2 ac06 81f8 0b87 a492 0f87
000003b0: 0c32 8507 f04a 0b85 5491 fd87 78bf af06
000003c0: b4b3 cb07 489b 1e08 b0df f987 4e4c 1888
000003d0: 7a8a 5b07 002e 6e04 a0c0 d187 62b8 1708
000003e0: dbda a207 2f90 cb07 71f4 0888 6c5a ab87
000003f0: c758 cb87 9cd5 1b87 8a23 7987 2c63 cd06

sequential/dense_2/MatMul f4 [1, 80]
0.13329482 -0.00171268 -0.16509473 -0.071382776 0.022648528 -0.19748968 0.0017847574 -0.0050609456
0.23499364 -0.0064763553 0.08274151 0.0027591775 -0.053737387 -0.011594354 0.1287897 0.01657649
-0.17871962 0.0024056833 0.12879908 -0.12589307 -0.10111773 -0.0359792 -0.0011347856 0.02105589
-0.22351408 0.026696399 0.12863813 -0.3439377 0.06642261 0.12736407 -0.2959076 -0.03391738
0.129898 -0.26298967 0.23541094 0.20726402 -0.019066922 0.14599384 -0.12547623 0.041428726
-0.1272438 -0.093401805 -0.070124336 0.25601855 -0.039641686 -0.027479582 -0.037613224 -0.22981161
0.0036175826 -0.0015010987 0.15049529 -0.002908578 -0.1838698 0.0023926941 -0.05009484 0.001764971
-0.14033903 0.13159265 0.018272793 -0.13528845 0.050865978 0.19671777 0.2374308 0.024940426
-0.0031984258 -0.023664199 0.1382483 0.0014601299 -0.17744508 0.06966653 -0.093974955 -0.025230207
0.27577966 0.14547336 0.005744129 -0.010369437 0.044051927 -0.094809145 0.15492123 -0.32566458
00000000: 707e 083e 017c e0ba 980e 29be 2231 92bd
00000010: 6889 b93c bc3a 4abe 85ee e93a 4ad6 a5bb
00000020: 2ca2 703e 9b37 d4bb 6174 a93d 51d3 343b
00000030: bc1b 5cbd 3ff6 3dbc 72e1 033e 6bcb 873c
00000040: 4702 37be aba8 1d3b e8e3 033e 1dea 00be
00000050: d016 cfbd ed5e 13bd 16bd 94ba 677d ac3c
00000060: e0e0 64be 68b2 da3c b7b9 033e 9a18 b0be
00000070: 9408 883d ba6b 023e 3381 97be f3ec 0abd
00000080: fb03 053e 95a6 86be 910f 713e 053d 543e
00000090: 3c32 9cbc 697f 153e d77c 00be 2bb1 293d
000000a0: 334c 02be 7249 bfbd 599d 8fbd dd14 833e
000000b0: 525f 22bd dc1c e1bc 5310 1abd bc53 6bbe
000000c0: f714 6d3b 84c0 c4ba 701b 1a3e d79d 3ebb
000000d0: 5d48 3cbe bfce 1c3b 3f30 4dbd 9956 e73a
000000e0: 09b5 0fbe 39c0 063e d3b0 953c 0e89 0abe
000000f0: d858 503d 6270 493e 0f21 733e dd4f cc3c
00000100: ae9c 51bb 6cdb c1bc f690 0d3e d461 bf3a
00000110: 2ab4 35be 53ad 8e3d f175 c0bd 94af cebc
00000120: fe32 8d3e f8f6 143e 3f39 bc3b 92e4 29bc
00000130: cb6f 343d 4c2b c2bd aca3 1e3e 82bd a6be
