models/model_extended.tflite (tflite, 356160 bytes, 5 tensors)

dense_1/bias f4 [80]
00000000: 6e29 f1bd 30f9 d2bd 19ec abbd 0d89 5dbb
00000010: 364c 27be ad8f 93bd a31b 88bd d312 99be
00000020: c753 49bb a4e4 a6bd a5f9 1bbe ce8a 75bd
00000030: 5f11 debd d1ae dcbd b9e9 d0be 624b dd3c
00000040: b3e5 05bd 8f4b 88bd 49a2 85bd 5cde 0bbe
00000050: 1144 c2bd 3ee0 42bd 9373 34bd a52d 0fbd
00000060: dcc7 ccbb 9344 9d3d 102f 76be 45c1 45bd
00000070: b94c 7bbd 9911 4fbd 463a cebc 5e79 d7be
00000080: a91a 2e3c ea50 3bbe 6721 2b3d 7241 00be
00000090: 5e99 45bd 202e 3e3d b7f6 75bd a42c bcbd
000000a0: 06d9 83bd fa99 82bd ef0b b3be 708f b4bd
000000b0: 246a 7ebe 3a85 0abd 7f65 b03c d90d ecbd
000000c0: 6db0 5a3d cdfd 81bd ed7a 80bd f6eb e2be
000000d0: 9af2 00be 326d 8abd 1f86 93bd c88f 47bd
000000e0: c93e a5bd 43c8 d7bd cf9a 7bbd 2707 c83d
000000f0: b463 65bd 467a 93bd a8b0 c2bd f878 34ba
00000100: 0686 93bd 1dc4 dcbd 5448 80bd b0a3 78bd
00000110: 78b2 96bd d598 04be fd8d 84be e5ec d43d
00000120: fcc6 99bd 5ee3 00be 5f17 c6bc 5507 2cbe
00000130: 32f8 a8be a872 81bd 2217 03be 4ff1 00be
-0.1177548 -0.10301435 -0.083946414 -0.0033803612 -0.16337666 -0.07205138 -0.06645896 -0.29897174
-0.0030720101 -0.081490785 -0.1523195 -0.059946828 -0.10843157 -0.10775531 -0.40803316 0.027013484
-0.03268976 -0.06655037 -0.06525094 -0.13659042 -0.09485639 -0.047577135 -0.044055533 -0.03495564
-0.006249411 0.07679095 -0.2404139 -0.04828002 -0.061352465 -0.05055389 -0.025174271 -0.42084783
0.010626473 -0.18292585 0.0417799 -0.12524965 -0.048241965 0.046430707 -0.06004974 -0.09188202
-0.06437878 -0.06377025 -0.34970042 -0.08816421 -0.24845177 -0.03381846 0.021532772 -0.11526079
0.05339091 -0.06347237 -0.06273446 -0.4432065 -0.12592545 -0.067591086 -0.07203316 -0.048721105
-0.08068616 -0.10536244 -0.061426934 0.09766989 -0.056003287 -0.07201056 -0.09506351 -0.0006884481
-0.07203297 -0.10779593 -0.062637955 -0.06070298 -0.07358259 -0.12948926 -0.25889578 0.103967465
-0.075086564 -0.12586734 -0.024181066 -0.16799672 -0.33001858 -0.06320697 -0.12801793 -0.12592052

dense/bias f4 [80]
00000000: 0a58 93bd 368c 93bd b25e 93bd 986c 9fbd
00000010: b898 5cbc 235c 93bd 5cec 1dbe 57ce 20be
00000020: 5282 93bd 9043 7bbd 3472 93bd 5f80 93bd
00000030: aa78 93bd aa8c 93bd 5c67 fcba 6c36 a3bd
00000040: 166d 8bbd 46eb 78be 926a 303e db31 27be
00000050: 2c15 c2bc f35c 2fbc 19a2 5cbd cea6 72bc
00000060: ee83 44be 6b62 93bd 66a9 45bd 8477 93bd
00000070: db8f 93bd 6e57 17bd 5721 5cbd cc05 99bd
00000080: 9d8f 91bd 8886 93bd 8088 93bd 90e0 92bd
00000090: e7f4 22bd 9095 7bbd 6036 60bd 1b1d 7bbd
000000a0: 134c 6ebd ca80 93bd 9ebe 87be 7457 93bd
000000b0: 6a29 55be ccec 0c3e e8c3 33bd 7ffe 9ebd
000000c0: b30f 14bd 4a5d 62bd 9046 93bd 93b6 febd
000000d0: 6c93 a3bd 160b e7bc 5f0c cdbd 3c6a 93bd
000000e0: 3f5b 7bbd 7cb5 87bd 958a 93bd c046 9dbd
000000f0: 7c4a 58bb c834 53bd ab27 86bd 4723 86bd
00000100: e9c9 7bbd de8c 93bd 6073 93bd 9bec 7cbd
00000110: b602 a0bd 0a48 6dbe f069 7abe 6cdb 63bd
00000120: f15c 0cbd aa66 bebd 9abc 47bc d6df 18bc
00000130: 986e 93bd e78b 93bd 27cd 903e 2985 18bd
-0.071945265 -0.072044775 -0.07195796 -0.077843845 -0.013464145 -0.07195308 -0.15422195 -0.15703712
-0.07202591 -0.06134373 -0.07199517 -0.07202219 -0.07200749 -0.07204564 -0.0019256878 -0.079693645
-0.06807916 -0.243085 0.17228153 -0.16327612 -0.023691736 -0.010703313 -0.053865526 -0.014810277
-0.19190952 -0.07196506 -0.048257254 -0.0720053 -0.07205173 -0.036948614 -0.053742733 -0.07471809
-0.0710747 -0.07203394 -0.0720377 -0.07171738 -0.03978434 -0.06142193 -0.054739356 -0.061307054
-0.05817802 -0.07202299 -0.26512617 -0.07194415 -0.2081658 0.13762206 -0.043888003 -0.07763385
-0.036147784 -0.05526475 -0.07191193 -0.12437167 -0.07987103 -0.028203528 -0.10012125 -0.07197997
-0.061366316 -0.06626412 -0.07204167 -0.0767951 -0.003300338 -0.051564008 -0.06550535 -0.06549697
-0.061471853 -0.07204603 -0.071997404 -0.061749082 -0.07813017 -0.23172012 -0.24454474 -0.05562918
-0.034268323 -0.09296925 -0.012190962 -0.00933071 -0.071988285 -0.07204419 0.2828152 -0.037236366

sequential/dense/MatMul f4 [80, 1024]
00000000: de74 8989 c091 b207 8497 aa09 1b3d 5509
00000010: 0af8 a388 80d3 f805 282b 1f88 a098 8289
00000020: ebd8 ad89 732e 6089 1c4c 8989 97b5 9109
00000030: c08f 8288 7225 9b89 f702 8989 70a1 5489
00000040: 7900 fb88 b3bc dd89 7e0c 7009 db07 9709
00000050: 17ba 4f89 f09a 3988 288c af89 f87e e289
00000060: f88a 2f88 b623 3a89 6cd8 9a09 5faa be89
00000070: 97c8 9109 fc0d 0c89 2bd5 1289 8add 1709
00000080: 30ba 9289 37a5 a809 ecf4 c387 e83b 9509
00000090: e9e1 9409 bd98 cd09 70ce 7b08 008f 6588
000000a0: 92b5 5009 f25c b709 2708 c409 992b 4209
000000b0: a423 cf09 e78b f708 85eb 9788 8021 4086
000000c0: 6c99 fe08 31cf d489 66a0 df08 5510 bb89
000000d0: 5ba8 dc89 6d53 6489 2ce7 6608 031d 8389
000000e0: 4099 c789 ca5c a989 1ed3 7389 527e c588
000000f0: 90cf 8a89 703a fd08 2aff af09 1070 8f87
00000100: a72c 5d09 33cf 2509 00b5 d109 84f4 d288
00000110: 0296 a689 f6f6 4b89 b8ea 8709 c7a2 4a89
00000120: dd62 cf88 6c49 8989 5c31 d988 0494 a089
00000130: 0a2b 9609 5367 9589 30d3 9789 c67a 3a09
00000140: ef8d 8d89 084f 3609 e402 e409 0490 0f89
00000150: ae1d 4b09 ba6d b589 283d b409 6eab 3289
00000160: 6cff 6689 7072 1e09 2ced 9309 fef8 e989
00000170: d8de 8309 e427 ce09 088b de88 c044 c309
00000180: 6eb2 ab89 40c3 c309 bf00 da09 fb84 cc09
00000190: 497c aa08 02b1 5889 b17a c389 3151 7a89
000001a0: ab62 4588 722c e789 5467 7287 d340 a508
000001b0: ec52 bd09 7708 8509 e85c 1688 7894 d388
000001c0: 8326 3409 6ede bf08 e9b1 c788 35d6 b289
000001d0: b2ab e808 5034 6e86 3067 9709 c250 3c89
000001e0: 707a a406 9866 3b09 66e1 8889 200c 3c09
000001f0: a190 cd88 b879 4487 e123 bb89 7c51 2d89
00000200: 1430 ec88 4836 d789 b88e 7d89 f2b7 4189
00000210: 70b5 b688 8c8a 1588 02c7 9e08 1882 2b87
00000220: b206 bc09 2ad6 6b88 90d8 3308 57e7 9889
00000230: 7b0b b188 7289 d388 3bf3 bf89 2dad 3189
00000240: d9a0 a089 ce91 e888 d480 ab08 b03a 3487
00000250: 0ade 0109 76c2 8909 2d39 e409 a087 a509
00000260: 14f4 4d87 f8ee 2b89 5e4a a608 96de d489
00000270: 817c 8389 d96a cd08 0e61 8609 c409 cb07
00000280: 6d5b 5889 9fd0 3b09 5059 8509 78eb aa07
00000290: 5447 1509 1e95 ac08 d08d 8e09 a0e3 4809
000002a0: e02d cb07 f20a ca88 c0c9 8a89 54a0 cd07
000002b0: 706c 7909 f389 4c88 0abf cd09 b2bd cd08
000002c0: fafa 4e09 b41b 0909 ea3a bd09 914c 8108
000002d0: ec1a 0509 4ac7 e688 c53d b308 0097 a309
000002e0: fc41 fc87 b179 f088 cb88 5609 dcb4 3587
000002f0: e9ff 4609 04bd b409 c2fc aa09 b808 2189
00000300: cb63 b609 a0a7 1a09 c61f cf89 9851 3c89
00000310: d991 5f89 1916 7209 61d8 9b89 015a 0689
00000320: aeb4 b689 a0e4 ae06 7d45 b589 f5cf a189
00000330: 660c 9a09 b3de 1809 16c6 f788 be18 0d09
00000340: c895 ab89 60d5 6e07 9a6e 3808 e0af c909
00000350: cafc bf09 5c7c cd08 7d46 8988 9618 9c09
00000360: 4666 e208 3e26 b809 fd23 4309 5aa4 de88
00000370: ad01 2b09 48ce 5e08 9eab 0909 802f c888
00000380: a411 d087 5020 3389 a6b3 8088 5873 e887
00000390: 00bf 9b89 e1ae b889 a507 1809 6781 6b89
000003a0: 58db b508 d1c7 ca89 c440 6a89 cf0b 7889
000003b0: 140a e907 f3d0 f008 886e 8a88 c2a6 a108
000003c0: f5a6 8d89 e425 a409 0c9c 2e88 a631 1f88
000003d0: bb1a 7589 7e74 3a88 6b0f ed88 a095 4d88
000003e0: bcda 2909 48cf c288 e48d bc87 265d 5389
000003f0: 22da 7309 b93f 2c89 1788 c809 c4db 5209
-3.309145e-33 2.6868127e-34 4.1068496e-33 2.5667674e-33 -9.868519e-34 2.3399501e-35 -4.789805e-34 -3.143989e-33
-4.1852224e-33 -2.698486e-33 -3.3053123e-33 3.5078247e-33 -7.857886e-34 -3.7350106e-33 -3.298434e-33 -2.559448e-33
-1.5106624e-33 -5.3381267e-33 2.8894823e-33 3.6359315e-33 -2.5004218e-33 -5.585354e-34 -4.226152e-33 -5.452692e-33
-5.2825504e-34 -2.2405727e-33 3.7277674e-33 -4.5901052e-33 3.5096114e-33 -1.6858462e-33 -1.7674342e-33 1.8280131e-33
-3.532331e-33 4.0599896e-33 -2.948429e-34 3.592678e-33 3.584215e-33 4.949559e-33 7.577523e-34 -6.9080277e-34
2.5122463e-33 4.4143053e-33 4.719295e-33 2.33724e-33 4.9866954e-33 1.4898663e-33 -9.143352e-34 -3.6135798e-35
1.5323138e-33 -5.1231985e-33 1.3459034e-33 -4.503397e-33 -5.3121394e-33 -2.7483728e-33 6.948485e-34 -3.1564385e-33
-4.8051623e-33 -4.077253e-33 -2.9349328e-33 -1.1886204e-33 -3.3417482e-33 1.5240622e-33 4.2369673e-33 -2.1582113e-34
2.6622903e-33 1.9958577e-33 5.048513e-33 -1.2696401e-33 -4.0104113e-33 -2.4551357e-33 3.2720796e-33 -2.4391403e-33
-1.2481602e-33 -3.3050596e-33 -1.3071817e-33 -3.8657792e-33 3.615166e-33 -3.596761e-33 -3.6550527e-33 2.2446663e-33
-3.407799e-33 2.1944613e-33 5.489172e-33 -1.7280715e-33 2.4449191e-33 -4.367735e-33 4.3390935e-33 -2.1506576e-33
-2.7805342e-33 1.9072366e-33 3.5611998e-33 -5.632686e-33 3.1746664e-33 4.963021e-33 -1.3393825e-33 4.7009195e-33
-4.1334547e-33 4.7128155e-33 5.2482293e-33 4.9236268e-33 1.0260722e-33 -2.6083283e-33 -4.705992e-33 -3.0130831e-33
-5.9398515e-34 -5.5653023e-33 -1.8236422e-34 9.945816e-34 4.5578074e-33 3.2026546e-33 -4.5248194e-34 -1.2734005e-33
2.168482e-33 1.1547687e-33 -1.2018703e-33 -4.305338e-33 1.40033575e-33 -4.4801258e-35 3.6448965e-33 -2.2667649e-33
6.186985e-35 2.2557546e-33 -3.2952773e-33 2.2635378e-33 -1.2371991e-33 -1.4781171e-34 -4.5052353e-33 -2.0862431e-33
-1.4215036e-33 -5.1810413e-33 -3.0520873e-33 -2.331802e-33 -1.0996382e-33 -4.5000918e-34 9.556066e-34 -1.2902841e-34
4.526565e-33 -7.096949e-34 5.412042e-34 -3.681022e-33 -1.0655499e-33 -1.2731414e-33 -4.621031e-33 -2.1387027e-33
-3.866986e-33 -1.3997271e-33 1.03219755e-33 -1.3558942e-34 1.5632212e-33 3.316442e-33 5.494277e-33 3.9849846e-33
-1.5494214e-34 -2.0695739e-33 1.0008245e-33 -5.1246462e-33 -3.1654186e-33 1.23631085e-33 3.2350596e-33 3.0549785e-34
-2.6043042e-33 2.26074e-33 3.2102574e-33 2.5717153e-34 1.7968761e-33 1.0386931e-33 3.4318616e-33 2.4181153e-33
3.0571008e-34 -1.2160006e-33 -3.3412016e-33 3.0939204e-34 3.0023272e-33 -6.1551176e-34 4.9531607e-33 1.2382586e-33
2.4914357e-33 1.6503801e-33 4.5555497e-33 7.781906e-34 1.6021951e-33 -1.3889474e-33 1.0787693e-33 3.9382822e-33
-3.7955528e-34 -1.4473084e-33 2.5823633e-33 -1.3670076e-34 2.3953711e-33 4.3511173e-33 4.1163704e-33 -1.938377e-33
4.390875e-33 1.8615893e-33 -4.9863317e-33 -2.2668042e-33 -2.6911226e-33 2.914008e-33 -3.7518374e-33 -1.6171983e-33
-4.3984817e-33 6.578746e-35 -4.363951e-33 -3.8954902e-33 3.708581e-33 1.8401047e-33 -1.49123415e-33 1.6983891e-33
-4.1307606e-33 1.7967835e-34 5.5500497e-34 4.8554382e-33 4.62193e-33 1.2367225e-33 -8.261959e-34 3.7578754e-33
1.3625925e-33 4.433235e-33 2.3489193e-33 -1.3399778e-33 2.0584164e-33 6.7048177e-34 1.657147e-33 -1.2048229e-33
-3.130673e-34 -2.1561535e-33 -7.745955e-34 -3.4975273e-34 -3.749451e-33 -4.4460844e-33 1.8299929e-33 -2.834794e-33
1.0945109e-33 -4.8817638e-33 -2.8197178e-33 -2.9857467e-33 3.5063867e-34 1.4493598e-33 -8.331559e-34 9.72904e-34
-3.410152e-33 3.9517196e-33 -5.2544653e-34 -4.7905684e-34 -2.950337e-33 -5.6109275e-34 -1.4267543e-33 -6.1865827e-34
2.0445483e-33 -1.1724682e-33 -2.8370492e-34 -2.5442e-33 2.9352627e-33 -2.073371e-33 4.8276227e-33 2.5381164e-33

sequential/dense_1/MatMul f4 [80, 80]
00000000: 685c 1a09 d4d9 2d08 07e7 af8a baf4 1ca2
00000010: 7c5e e409 22c9 3f8a 9070 3189 14cf 0009
00000020: c621 8709 ea64 e309 0079 5888 f4c4 bc09
00000030: 12b0 8008 285e ee88 e401 de89 80cc 8a89
00000040: 6f18 4719 4532 fd88 8f70 a1ba 0517 9589
00000050: 0446 a92f 7499 1939 d958 d2a4 c055 28bb
00000060: e882 93ae 7687 b00a ef76 c2a3 fc97 2709
00000070: 52e6 1f09 513b 58bc 68a9 3e08 c67e 5f0b
00000080: dcdf 0c8a 1f93 a389 9dc0 9289 10d0 5908
00000090: 539c ec2d 4c49 8d89 44fa 7d95 6f08 058b
000000a0: 949f 52b1 a5ae 9309 38d4 ed08 f0d1 5789
000000b0: 9292 5709 205e 738b fa56 eba8 0198 64b1
000000c0: e34a a088 9065 9709 2ed6 8389 3ff2 9289
000000d0: 4969 dcb0 7220 2e39 8856 ad0a b409 8f09
000000e0: a2c4 d489 20e7 c207 30f6 c207 001b 7a08
000000f0: c218 b3ba 5071 9308 0aea 8989 4027 82b3
00000100: d167 aa89 ea41 ec88 ccae 9b89 00e7 3289
00000110: 3ea5 c0b9 64f2 6bb5 f000 00b9 30a3 8909
00000120: 6a22 2909 1c37 d009 06e5 753a afc5 a7b9
00000130: 8614 aa89 72e5 6e89 4f9c aab0 2495 f137
00000140: 6d1b cc89 6c5b f307 6617 6309 7045 173c
00000150: 90e1 1f88 1e76 9989 489c ca8a c31a 9c8a
00000160: 8450 0409 5862 2f89 0012 1308 09ed 9a89
00000170: c9be b489 6691 1789 3ea5 ee3c 3ebc cdbd
00000180: ef57 2e3d 09c6 bc89 37c2 b6b8 9c66 a208
00000190: fd7c 013d 133d a5bd 8b9d 63bd 274e c63c
000001a0: 95e1 1cbc 646e d789 94d9 2ebd 4a15 ae09
000001b0: d022 c308 75d0 abbd d528 c036 c8de 1409
000001c0: 3143 02be 404e 0787 3cde eb88 3c6b 5789
000001d0: 23f5 c8bc 5071 4708 748f 34bd 5afc 9e89
000001e0: dece f0bd 14d0 8e89 967d 27b1 3efd 5909
000001f0: 04e0 5d09 2524 63b8 8c66 4cbd 710b 5f3d
00000200: 04f4 0e3d c0ec 7209 aa7d b708 c01e 9688
00000210: 3e22 d689 91a3 e9bb e8bf 0d89 8ed6 4309
00000220: dfa1 950a 8079 7707 4f91 e109 80a7 ea89
00000230: 0472 a7bd d870 6dbd 5fde 4ebd 2dba 1bb7
00000240: c00c 9108 f9e4 a509 1220 4288 8001 3e08
00000250: 7511 ac09 1918 a9bd 63ec 60bc 8402 d889
00000260: b0ee c8bd 8224 5709 0ca0 0f3d 5890 e0bd
00000270: 044c 4e89 483f 2709 2de7 8cbd 3cb3 3a3b
00000280: 04af 4608 58fc a487 881e cc89 6152 663a
00000290: de92 150b 0000 da85 185f 8a88 4d37 078b
000002a0: 4d8f 9089 408e 8608 609e 4489 d59a 3e08
000002b0: 10cc 3b88 0304 e009 4516 beb6 472f d634
000002c0: f650 8fb9 3f4e 5f09 60fb 46ba 7605 d309
000002d0: a03a 6139 f4e5 84bc 31e3 fc39 549e d53b
000002e0: 1d57 9587 281d 6109 b426 2ab9 08ba cb88
000002f0: 5bee 9989 aa7b 66bd cc94 9189 c0f2 3689
00000300: e951 68b9 7388 6309 8974 ab09 1c27 db09
00000310: 6180 94bb 4058 4509 8ba3 c938 c09e fc07
00000320: 8a84 22bb f09a e589 a08f 8988 b24d de89
00000330: 63f0 0b09 3aaa 770a 8512 393a 63bb 173b
00000340: 917b 0238 5ac0 b009 eee6 1009 b04f 1689
00000350: 5f4b efba 8203 03bc 9e10 858b b818 1689
00000360: b087 e908 8066 3709 bec2 a509 a417 970a
00000370: fea1 14bd 966b 50b3 e433 4837 faaa 183b
00000380: b420 2a89 a1e3 bb08 b016 8b08 94e9 d989
00000390: 5860 e937 dedd 4dba 9df0 193b 6842 e508
000003a0: a312 ccb8 637b b288 1c2d 603c 8ffd 4bbc
000003b0: 98ef b809 3090 e386 6437 0239 2234 403b
000003c0: b349 de08 1894 9809 c9df db8a 3e86 5209
000003d0: 2e05 24bc 60d7 8a89 6e69 a689 6377 820b
000003e0: 8abc cc09 1411 4d89 e106 2489 6810 bc89
000003f0: b467 7a09 88bf 8a8a 02af b189 18a1 4389
1.8580525e-33 5.231635e-34 -1.693879e-32 -2.12715e-18 5.4977856e-33 -9.234144e-33 -2.1358527e-33 1.5504807e-33
3.253183e-33 5.474316e-33 -6.514237e-34 4.5444568e-33 7.745114e-34 -1.434624e-33 -5.3446334e-33 -3.3414602e-33
1.0292993e-23 -1.5238702e-33 -0.001231687 -3.5892093e-33 3.079067e-10 0.00014648383 -9.1223496e-17 -0.0025685877
-6.70804e-11 1.6999138e-32 -2.1083892e-17 2.0173357e-33 1.9247225e-33 -0.013197736 5.737518e-34 4.3043611e-32
-6.782858e-33 -3.9379175e-33 -3.5329354e-33 6.554564e-34 2.6899516e-11 -3.4013443e-33 -5.1290368e-26 -2.5621213e-32
-3.0649732e-09 3.5553198e-33 1.4313811e-33 -2.5978396e-33 2.59486e-33 -4.687091e-32 -2.6127961e-14 -3.326477e-09
-9.6472555e-34 3.6447437e-33 -3.1738516e-33 -3.537603e-33 -1.6037031e-09 0.0001660602 1.6691843e-32 3.4435123e-33
-5.1222056e-33 2.9325719e-34 2.9334572e-34 7.5263377e-34 -0.0013663995 8.87388e-34 -3.320164e-33 -6.060736e-08
-4.102364e-33 -1.421923e-33 -3.747927e-33 -2.1534586e-33 -0.0003674421 -8.7897047e-07 -0.0001220738 3.313501e-33
2.0358816e-33 5.0126003e-33 0.00093801355 -0.00032000008 -4.094531e-33 -2.8756093e-33 -1.2413554e-09 2.8798888e-05
-4.9137005e-33 3.661631e-34 2.7335133e-33 0.009232864 -4.811247e-34 -3.6944487e-33 -1.9510679e-32 -1.503232e-32
1.592678e-33 -2.11111e-33 4.4257362e-34 -3.729706e-33 -4.3512837e-33 -1.824433e-33 0.029131528 -0.1004567
0.04256433 -4.5445585e-33 -8.7146116e-05 9.774144e-34 0.03161334 -0.080682896 -0.055570167 0.024207188
-0.009575267 -5.1863178e-33 -0.042687967 4.1908996e-33 1.174432e-33 -0.083893694 5.7267994e-06 1.7919603e-33
-0.12720944 -1.0179267e-34 -1.4195795e-33 -2.5930105e-33 -0.024530953 6.0017582e-34 -0.04408212 -3.8274427e-33
-0.11758207 -3.4380932e-33 -2.4373086e-09 2.6239499e-33 2.6707239e-33 -5.415468e-05 -0.049902484 0.05445427
0.03490068 2.924101e-33 1.1043455e-33 -9.035026e-34 -5.1550827e-33 -0.0071300943 -1.7062492e-33 2.3573154e-33
1.4409067e-32 1.861792e-34 5.4303427e-33 -5.6490967e-33 -0.08176044 -0.057968944 -0.05050504 -9.282067e-06
8.729868e-34 3.993763e-33 -5.841745e-34 5.717781e-34 4.142391e-33 -0.082565494 -0.013728234 -5.2002474e-33
-0.09811151 2.589685e-33 0.035064742 -0.109650314 -2.483209e-33 2.0131648e-33 -0.06880031 0.002848818
5.9789188e-34 -2.4824292e-34 -4.9139925e-33 0.0008786079 2.8806847e-32 -2.0500621e-35 -8.327929e-34 -2.6041658e-32
-3.48015e-33 8.098274e-34 -2.366711e-33 5.735805e-34 -5.651314e-34 5.392981e-33 -5.6650338e-06 3.9895005e-07
-0.00027335406 2.687944e-33 -0.00075905584 5.0801538e-33 0.00021479512 -0.016222931 0.00048234456 0.0065191183
-2.2470229e-34 2.7097099e-33 -0.00016226881 -1.2261354e-33 -3.705756e-33 -0.05627028 -3.5047408e-33 -2.2021594e-33
-0.00022155758 2.738829e-33 4.127634e-33 5.275911e-33 -0.0045319055 2.3754507e-33 9.614889e-05 3.801005e-34
-0.0024798238 -5.5275447e-33 -8.279154e-34 -5.351762e-33 1.6844546e-33 1.19246335e-32 0.00070599496 0.0023152463
3.1109495e-05 4.2551345e-33 1.7441952e-33 -1.8093062e-33 -0.0018256715 -0.007996442 -5.125474e-32 -1.8067216e-33
1.4055077e-33 2.2076019e-33 3.990544e-33 1.4549664e-32 -0.0362873 -4.8526623e-08 1.1933011e-05 0.002329527
-2.0478383e-33 1.1308168e-33 8.371092e-34 -5.2460506e-33 2.7820628e-05 -0.000785319 0.0023489364 1.3798048e-33
-9.7309494e-05 -1.0741993e-33 0.01368263 -0.01245059 4.45217e-33 -8.5599774e-35 0.00012418401 0.0029327949
1.3378466e-33 3.6731936e-33 -2.1173112e-32 2.534095e-33 -0.010011001 -3.342483e-33 -4.0062192e-33 5.025381e-32
4.9288515e-33 -2.4684008e-33 -1.9744016e-33 -4.5274782e-33 3.0141416e-33 -1.3360963e-32 -4.2775777e-33 -2.3548017e-33

sequential/dense_2/MatMul f4 [1, 80]
00000000: 92f0 9abd a0c2 19be 62da 5dbd ea19 3dbe
00000010: f0fa 4cbe 5396 e93d 2001 b6be 92bd 313e
00000020: b19c dbbd a8f5 a3bc 6248 7d3e 1375 10be
00000030: a1c0 2c3d e2f1 2b3e b9bd 913e 5768 183d
00000040: 5eaa 2f3b b2d8 453d cf79 6e3d e7b2 123e
00000050: da13 cc3d f5c9 a3bd dbaa 0ebe 60b5 07bd
00000060: 61d6 aabb 5a14 37be 52a3 833e e023 69bc
00000070: 6bb9 6ebd 4049 29be 70af 4fbe 931d ca3e
00000080: f944 463e 80d5 ce3e a8c6 82be f3bd 05bf
00000090: cef0 2dbe 0104 6dbe 8c55 483e 314b bdbe
000000a0: 157f 4bbe bee3 a7bd 127d e73e 2985 643d
000000b0: 71cb 1b3e 6fe5 03bf ef0e a33d 776d 1d3d
000000c0: c9a5 75bc 2e21 433e 2017 0d3e c1fc db3e
000000d0: 3a7e 59be 585a 58bc 7aa4 ea3c 168d babd
000000e0: 6bc8 643d 2da5 9ebd e748 903e a3d2 64be
000000f0: 6170 323d 46f4 c6bd 9c59 5e3e 7cb2 90be
00000100: 8185 4f3d 71e1 95bd 6b19 de3c 2a31 5dbe
00000110: e9d2 90bb b4f9 77bd 7648 963e 2c34 bdbe
00000120: 6e7b 0e3e 5058 75be 860f c4bb a1e4 483d
00000130: ecb8 c83e b1a5 42be bcab b2bc 5627 2abd
-0.075654164 -0.1501565 -0.054163344 -0.18466917 -0.200176 0.11405625 -0.35547733 0.17357472
-0.10723246 -0.020014599 0.24734643 -0.1410716 0.042175893 0.1679149 0.2846506 0.03720888
0.0026804428 0.04830236 0.058221634 0.14326058 0.09964724 -0.079975046 -0.13932364 -0.033131957
-0.0052135442 -0.17878857 0.2571054 -0.014229745 -0.058282297 -0.16531849 -0.20281768 0.39475688
0.19362248 0.40397263 -0.25542188 -0.52242965 -0.16986391 -0.23146059 0.19563884 -0.3697143
-0.19872697 -0.08197735 0.4521261 0.055791054 0.15214325 -0.5152196 0.07961833 0.038434472
-0.01499314 0.19055626 0.13778353 0.42966273 -0.21239558 -0.013205133 0.028642882 -0.09108941
0.055855196 -0.077463485 0.2818062 -0.22345977 0.043564204 -0.0971456 0.21713871 -0.28261173
0.05066443 -0.0731839 0.02711173 -0.21600786 -0.0044196737 -0.06054087 0.29352158 -0.36953866
0.13914272 -0.2395947 -0.005983296 0.049046163 0.39203584 -0.19008519 -0.021810405 -0.04154142
